model.tflite (tflite, 4868 bytes, 6 tensors)

dense_2/bias f4 [11]
0	0x3d2a7974	0.041619733
1	0xbd9ead58	-0.077479064
2	0xbe66e7ef	-0.22549413
3	0x3f186678	0.59531355
4	0x3defbb20	0.11705613
5	0x3db3d06a	0.08779986
6	0xbec09c80	-0.376194
7	0xbe9b388c	-0.3031658
8	0x3df2c388	0.11853701
9	0xbe156b11	-0.14591624
10	0xbd733849	-0.05937985

dense_1/bias f4 [15]
0	0x3e85f8b2	0.26166302
1	0xbdad931f	-0.08475327
2	0x3e4d09eb	0.20023315
3	0xbe1072a0	-0.14106226
4	0x3e7230bf	0.23651408
5	0x3e968b59	0.2940319
6	0x3e22480f	0.158478
7	0x3e47d45e	0.19514605
8	0x3e6ab2e9	0.22919811
9	0x3e852fee	0.2601313
10	0x3e827992	0.25483376
11	0x3e6e3d77	0.23265634
12	0x3e1d437e	0.15357777
13	0x3e3f0d45	0.18657406
14	0x3e60de80	0.21959877

dense/bias f4 [30]
0	0xbe1f00be	-0.15527627
1	0x3d3cac11	0.046062533
2	0x3e66ee4b	0.22551839
3	0x3dddda07	0.10832601
4	0xbb66f387	-0.0035240368
5	0xbe3ebccc	-0.18626708
6	0x00000000	0.0
7	0x3d907bf4	0.07054892
8	0x00000000	0.0
9	0xbe88029c	-0.2656449
10	0xbdc67281	-0.09689809
11	0x3d80a059	0.06280584
12	0x3d8fd362	0.0702274
13	0xbd90cc80	-0.07070255
14	0x3e1f800b	0.15576188
15	0xbe1be593	-0.15224294
16	0x3e2e9701	0.17049791
17	0x00000000	0.0
18	0x3d8325b6	0.06403677
19	0x00000000	0.0
20	0x00000000	0.0
21	0x3e1c4128	0.1525923
22	0xbe673b4b	-0.22581212
23	0x00000000	0.0
24	0x3e5a2f48	0.21307099
25	0xbe3aeb51	-0.18253829
26	0x3e10b2d5	0.14130719
27	0x3e03a9dc	0.12857765
28	0x3e836586	0.25663394
29	0x3e8b7303	0.27236184

sequential/dense/MatMul f4 [30, 3]
0	0xbe52770d	-0.20553227
1	0x3eefe6ed	0.4685587
2	0x3d8a5001	0.06753541
3	0x3d4ac3aa	0.049503006
4	0xbf1483e0	-0.58013725
5	0x3f05730a	0.5212866
6	0xbc047df7	-0.008086673
7	0x3e9144e4	0.28372872
8	0xbf01df66	-0.50731504
9	0xbedf94ca	-0.43668205
10	0xbe2d043d	-0.16896148
11	0x3f0448ad	0.51673394
12	0x3f2cf221	0.6755696
13	0xbeca2fcd	-0.39489594
14	0xbeac5f95	-0.33666673
15	0xbe4d6066	-0.20056304
16	0x3ee1fc75	0.44137922
17	0x3e2e5e70	0.17028213
18	0xbd8d3ae4	-0.06895998
19	0xbe886ce7	-0.26645586
20	0xbd39d700	-0.045371056
21	0xbe7cd437	-0.24690329
22	0xbea1e37e	-0.31618875
23	0x3f11c395	0.5693906
24	0xbe19076c	-0.14944237
25	0xbdfa15ac	-0.12211165
26	0xbe0cd98c	-0.13754863
27	0x3eb87daf	0.3603339
28	0x3e29fb13	0.16599683
29	0xbc72f8a8	-0.014829792
30	0xbe417165	-0.18890913
31	0xbda3ca3e	-0.07997559
32	0x3ef8b20f	0.48573348
33	0x3e821021	0.2540293
34	0x3e98253b	0.29715905
35	0xbf0a9eb1	-0.54148394
36	0x3f02b358	0.51054907
37	0x3de3ad79	0.11117072
38	0xbf38bb52	-0.7216083
39	0xbe22122b	-0.15827243
40	0xbe25ab79	-0.16178693
41	0x3d8fc885	0.07020668
42	0xbec9e263	-0.39430532
43	0xbea3e0e8	-0.32007527
44	0x3f14327c	0.57889533
45	0x3e998245	0.299822
46	0xbea89f1b	-0.32933888
47	0x3ed82ce2	0.42221743
48	0xbdc46c18	-0.0959093
49	0x3f0498cd	0.51795655
50	0xbf169c9a	-0.58832705
51	0xbc2bdd00	-0.010489702
52	0xbd8877a8	-0.066634476
53	0xbdc863f0	-0.097846866
54	0x3f03bf25	0.5146354
55	0xbdf0f4e2	-0.11765458
56	0xbf08083f	-0.5313758
57	0xbdf84078	-0.121216714
58	0xbe813d3f	-0.2524204
59	0xbeb9d584	-0.36295712
60	0xbed479ac	-0.41499078
61	0xbc891210	-0.016732246
62	0xbd99dfe0	-0.07513404
63	0x3e9952a2	0.29945856
64	0xbf0d1d3b	-0.5512273
65	0x3dc889e7	0.09791928
66	0x3ea460c1	0.32105067
67	0x3bcc5b5a	0.006236476
68	0x3e0c916a	0.13727346
69	0xbe8b9300	-0.2726059
70	0xbe0c3cec	-0.13695115
71	0xbd67fdf0	-0.056638658
72	0xbeebcc1d	-0.46054164
73	0x3f21ecb9	0.63251835
74	0xbf16a103	-0.58839434
75	0x3ec6a07f	0.38794324
76	0x3e8bc1ee	0.27296394
77	0xbea5b1da	-0.32362252
78	0xbf198147	-0.59962887
79	0x3eb001a3	0.3437625
80	0x3e0dcc7d	0.13847537
81	0x3ec10c32	0.37704617
82	0xbf273f16	-0.65330637
83	0x3df8ede1	0.12154747
84	0xbf030e08	-0.51193285
85	0x3ef226da	0.47295266
86	0xbe5d3281	-0.21601297
87	0xbf2dc836	-0.6788362
88	0x3ee085ad	0.43851987
89	0xbd5bf886	-0.053703807

sequential/dense_1/MatMul f4 [15, 30]
0	0x3e645972	0.22299746
1	0xbea5f8f5	-0.32416502
2	0x3df0fca6	0.11766939
3	0x3effdbd2	0.49972397
4	0xbf0c1f75	-0.547355
5	0x3f1062f2	0.5640098
6	0xbeae9762	-0.3409987
7	0x3e831315	0.25600496
8	0x3e505e74	0.20348531
9	0xbd6fbad3	-0.05852778
10	0x3ee11386	0.43960208
11	0x3d5f569b	0.054525953
12	0xbe0e91ce	-0.13922808
13	0xbe87134d	-0.26381913
14	0x3f0ddb3a	0.5541264
15	0xbe87fc68	-0.26559758
16	0x3dd67b5c	0.10472748
17	0x3de2bd44	0.11071256
18	0xbeac4fa8	-0.33654523
19	0xbd267e98	-0.040648073
20	0x3e183000	0.1486206
21	0xbf2cb516	-0.67463815
22	0xbed69af2	-0.4191509
23	0xbeb1bde7	-0.34715196
24	0x3f366c74	0.71259236
25	0xbe7bf684	-0.24605757
26	0x3f99a987	1.2004861
27	0xbf141ab2	-0.57853234
28	0x3f93fe68	1.1562014
29	0x3f8e3015	1.1108423
30	0x3f08ca55	0.53433734
31	0xbe04c5c3	-0.12966065
32	0x3bc59158	0.006029289
33	0x3e6a580d	0.22885151
34	0xbe8ab3ef	-0.27090403
35	0x3ef9c7e0	0.48785305
36	0xbe535ac6	-0.20640096
37	0x3ed8916a	0.42298442
38	0x3d415290	0.04719788
39	0xbd831ae7	-0.064016156
40	0x3f3c22ae	0.73490417
41	0xbe5bce71	-0.2146547
42	0x3e324688	0.17409718
43	0xbe576f2d	-0.21038504
44	0xbc5a118c	-0.013309848
45	0xbea4848b	-0.32132372
46	0x3eb112cc	0.34584653
47	0x3e36d704	0.1785546
48	0x3e0aceca	0.13555446
49	0x3eb11174	0.34583628
50	0xbe6e8a1d	-0.23294874
51	0xbf618d42	-0.8810617
52	0xbe99e100	-0.30054474
53	0x3db9151c	0.090372294
54	0x3ea77c18	0.32711864
55	0xbe5dc046	-0.21655378
56	0x3f030a2a	0.51187384
57	0xbf6991c7	-0.91238064
58	0x3e019b6e	0.12656948
59	0x3e35a9e4	0.1774059
60	0xbdb7468c	-0.089490026
61	0xbe5bc138	-0.21460426
62	0x3fb19ecb	1.3876585
63	0xbe281905	-0.16415794
64	0x3efbc6b4	0.49175036
65	0x3b5ff4d0	0.003417302
66	0xbe1a074d	-0.15041848
67	0xbe98eb3c	-0.2986697
68	0xbe84961e	-0.2589578
69	0xbd9b1a7b	-0.0757341
70	0xbeb84970	-0.35993528
71	0x3f51e51b	0.8199021
72	0x3f8231a9	1.0171405
73	0x3ea721d0	0.32642984
74	0xbe1ce319	-0.15321006
75	0xbdcdd43e	-0.100502476
76	0x3f9b3fb6	1.2128818
77	0xbe068a8d	-0.1313879
78	0x3f0b211f	0.54347414
79	0x3eaee6b6	0.34160393
80	0x3e9ca4a0	0.3059435
81	0xbe348e31	-0.17632367
82	0xbda32e2b	-0.0796779
83	0x3e533450	0.20625424
84	0x3f32c621	0.6983357
85	0x3ea1d5cd	0.3160843
86	0xbd636ee1	-0.055525664
87	0xbe17ae2c	-0.14812535
88	0x3e9a136b	0.3009294
89	0xbcf000b6	-0.029297214
90	0x3dcd59da	0.100269035
91	0x3e72c256	0.23706946
92	0xbd65415c	-0.055970535
93	0x3eb0ace1	0.34506896
94	0x3f07a5c3	0.5298731
95	0xbd7103a6	-0.05884137
96	0x3d327990	0.043572962
97	0x3eff4e29	0.4986432
98	0x3e62e5f0	0.22158027
99	0xbd022254	-0.03177102
100	0xbcd183f6	-0.02557562
101	0xbe27048b	-0.16310327
102	0x3f01999b	0.5062501
103	0x3e90b3c1	0.2826214
104	0x3f138be6	0.57635343
105	0xbbb9b944	-0.0056678373
106	0x3dedd956	0.11613719
107	0x3e494000	0.1965332
108	0x3e96294d	0.29328385
109	0x3eafd500	0.34342194
110	0xbdf23098	-0.11825675
111	0x3e85913c	0.26087368
112	0xbcc59632	-0.02411947
113	0x3d997104	0.07492259
114	0x3e635142	0.22198966
115	0x3d414464	0.047184363
116	0xbe1c2c7b	-0.15251343
117	0x3e954bc2	0.2915936
118	0x3eba4110	0.36377764
119	0x3e39eb61	0.18156196
120	0xbe849fba	-0.25903112
121	0x3f6e0a60	0.9298458
122	0xbeb426f5	-0.35185972
123	0x3f34a80a	0.7056891
124	0xbe097e99	-0.134272
125	0x3cc4be43	0.024016505
126	0xbea937db	-0.33050427
127	0x3fa0e06a	1.2568486
128	0xbe3056a7	-0.17220555
129	0xbea0579c	-0.3131684
130	0x3e867815	0.2626349
131	0xbee7b67c	-0.45256412
132	0xbe8c56c0	-0.27409935
133	0xbe9a7570	-0.30167723
134	0x3f476cf9	0.77900654
135	0x3e7a43ba	0.24439898
136	0xbed9c615	-0.42533937
137	0xbaca5900	-0.0015437901
138	0xbe8efa12	-0.27925164
139	0x3e5ec088	0.21753132
140	0xbe6e8b75	-0.23295386
141	0x3f08114f	0.5315141
142	0xbe4e6200	-0.20154572
143	0x3cac2ce0	0.021017492
144	0xbf06ee86	-0.5270771
145	0xbeeadc10	-0.4587102
146	0x3edc8d48	0.4307654
147	0x3f0c7cf9	0.54878193
148	0xbe545696	-0.20736155
149	0x3eb9bc9f	0.3627672
150	0x3e861586	0.26188296
151	0x3ee30e4f	0.44346854
152	0xbf00d9f8	-0.50332594
153	0x3e19de7b	0.15026276
154	0xbe4820b7	-0.1954373
155	0x3f0c2435	0.5474275
156	0x3e852eaa	0.26012164
157	0x3e8e7a98	0.27827907
158	0x3ea598f6	0.32343262
159	0x3efd1bee	0.4943537
160	0x3f29f1a4	0.6638434
161	0xbe3af1a9	-0.18256249
162	0xbee55107	-0.4478838
163	0x3dda14ca	0.106484964
164	0xbe177ab2	-0.14792898
165	0x3f04902a	0.51782477
166	0xbe34582c	-0.1761176
167	0xbe9735c1	-0.29533198
168	0xbf0f8ab9	-0.5607105
169	0xbea96dd4	-0.33091605
170	0x3e8504d6	0.25980252
171	0xbe7bfc2b	-0.24607913
172	0x3f011285	0.50418884
173	0x3d261a28	0.04055229
174	0xbe7cef46	-0.2470065
175	0x3e95b410	0.2923894
176	0xbe411c1b	-0.18858378
177	0xbde7499f	-0.11293339
178	0xbe9e5456	-0.30923718
179	0xbe64fc4a	-0.22361866
180	0xbedb251e	-0.42801756
181	0x3e8b8788	0.2725184
182	0x3c7c9ed6	0.015418729
183	0xbedfa4d3	-0.43680438
184	0x3f24444c	0.6416671
185	0xbeb48761	-0.35259536
186	0xbe2a0529	-0.16603531
187	0xbe3965d1	-0.18105246
188	0x3e4fa7b0	0.20278811
189	0xbca8633a	-0.020555127
190	0xbe9cd6a5	-0.3063251
191	0x3b966376	0.0045894934
192	0x3e9ff7b3	0.31243667
193	0x3e4436d7	0.19161545
194	0xbdd82816	-0.10554521
195	0x3deae0d6	0.11468665
196	0xbcbcdd4d	-0.023054743
197	0xbddd7278	-0.10812849
198	0x3f59e2c6	0.85111654
199	0x3d8256a0	0.06364179
200	0xbe375a05	-0.17905433
201	0x3f9a495d	1.2053639
202	0x3d7869c6	0.06064775
203	0xba36da00	-0.00069752336
204	0xbf1520d6	-0.5825323
205	0xbdc1ed18	-0.0946905
206	0xbef8eae4	-0.48616707
207	0x3f725ecd	0.94675905
208	0xbf3b47cd	-0.73156434
209	0xbf888333	-1.0665039
210	0x3db24d98	0.08706206
211	0xbea853ec	-0.32876527
212	0x3e821800	0.25408936
213	0xbf2941e7	-0.66116184
214	0x3f268d6f	0.6505956
215	0x3d95e9ec	0.07320008
216	0x3d216440	0.039402246
217	0xbf6045e2	-0.8760663
218	0x3dd83778	0.10557455
219	0x3efe8f98	0.49718928
220	0xbeba47a9	-0.36382797
221	0x3f2bc848	0.6710248
222	0x3f45d778	0.77281904
223	0xbe6ef56d	-0.2333581
224	0xbf704ccd	-0.9386719
225	0x3e6e2f35	0.23260196
226	0x3edd6473	0.432407
227	0x3e532d8c	0.20622844
228	0x3ea597a1	0.32342246
229	0x3de49f08	0.11163145
230	0xbe7fe609	-0.24990095
231	0xbb2f6b7f	-0.0026766954
232	0x3ea45e23	0.3210307
233	0xbe3070e6	-0.17230567
234	0xbef97f00	-0.48729706
235	0x3f09436d	0.5361851
236	0xbe781fc0	-0.24230862
237	0xbc968749	-0.018375056
238	0xbf79ac9e	-0.9752902
239	0xbf107dc7	-0.5644192
240	0x3f2ea80c	0.6822517
241	0xbd79a9f9	-0.060953114
242	0x3e08c8c0	0.1335783
243	0x3f41ff4c	0.7578018
244	0xbecf7faf	-0.40527102
245	0x3f319a56	0.6937612
246	0xbe5ee1e7	-0.21765862
247	0x3e4e5ac2	0.20151809
248	0xbe9f3819	-0.31097487
249	0xbd9c081f	-0.076187365
250	0x3f23c16e	0.63967025
251	0x3bcd60c3	0.0062676384
252	0xbe8dab29	-0.27669647
253	0xbd2b52b6	-0.041826926
254	0x3ec04b93	0.3755766
255	0x3c2c74b7	0.010525874

sequential/dense_2/MatMul f4 [11, 15]
0	0x3dbf2614	0.09333435
1	0xbe43f664	-0.1913696
2	0xbf3c9e93	-0.73679465
3	0xbf8dbcc9	-1.1073238
4	0xbdcc8618	-0.09986514
5	0x3f0e48b7	0.55579704
6	0xbf88445f	-1.0645865
7	0x3e1d9a26	0.15390834
8	0x3ed2e7f5	0.41192594
9	0x3f464081	0.77442175
10	0xbee1005d	-0.4394559
11	0xbf6a4aef	-0.9152059
12	0xbf2f12b6	-0.68387926
13	0x3e451670	0.1924684
14	0xbf849ce9	-1.0360385
15	0x3edcd95f	0.4313459
16	0x3e9b04ae	0.30277008
17	0xbfe8bbfe	-1.8182371
18	0x3e6d2f36	0.23162541
19	0x3f066e5f	0.5251216
20	0x3cedf6b1	0.029048296
21	0xbf560405	-0.83599883
22	0xbfb7b1f0	-1.4351177
23	0x3ee81e4c	0.45335615
24	0x3e9b5181	0.3033562
25	0x3ee8a3a7	0.45437357
26	0xbf98015f	-1.1875418
27	0x3f0ed4ec	0.55793643
28	0xbe3d4967	-0.18485032
29	0xbf889bc9	-1.0672542
30	0x3f00175b	0.5003564
31	0x3f2c60fb	0.6733548
32	0xbede073d	-0.43364897
33	0x3e40b628	0.18819487
34	0x3ea98e86	0.3311655
35	0xbd52fc77	-0.0515103
36	0xbfc50918	-1.53934
37	0xbf62140b	-0.88311833
38	0x3f08938a	0.53350127
39	0xbe3791ab	-0.17926662
40	0xbed863b3	-0.42263564
41	0xbf38c640	-0.72177505
42	0x3f1253df	0.5715923
43	0xbf89a1b2	-1.075247
44	0x3de507cd	0.111831285
45	0x3ea5558a	0.32291824
46	0xbf3f6ddc	-0.7477701
47	0xbe94d98e	-0.2907223
48	0xbec295ae	-0.38004822
49	0x3eaa6ba9	0.33285263
50	0xbd54b20b	-0.051927608
51	0xbf5d15b3	-0.86361235
52	0xbf5dc964	-0.8663542
53	0x3eced452	0.40396363
54	0x3e47c604	0.1950913
55	0x3e2672d8	0.16254747
56	0xbe34bc8e	-0.17650053
57	0x3ebcfcf7	0.36911747
58	0xbeb9b3dc	-0.36270034
59	0x3e62c03d	0.22143646
60	0xbe568698	-0.20949781
61	0xbef5ef72	-0.48034245
62	0x3e6730fc	0.2257728
63	0xbec158f7	-0.37763187
64	0xbf96c631	-1.1779233
65	0x3e894ec6	0.26817912
66	0xbe7cab63	-0.24674754
67	0x3eef076b	0.46685347
68	0x3ea4d6c1	0.32195094
69	0x3ee8fb4f	0.45504233
70	0xbfa2550e	-1.2682207
71	0x3e9a9394	0.30190718
72	0xbf6afdb6	-0.9179338
73	0xbe5609d4	-0.20902187
74	0x3e5b0dff	0.21392058
75	0xbf11a171	-0.56886965
76	0xbf1d5a48	-0.61465883
77	0x3e60b264	0.2194305
78	0x3df6d485	0.12052254
79	0xbf21f9f8	-0.6327205
80	0xbd3e157d	-0.04640721
81	0x3e7aae8f	0.24480651
82	0x3ec27727	0.3798153
83	0xbd53ec75	-0.051739175
84	0x3d30cc1e	0.04316341
85	0xbf1628e3	-0.5865614
86	0x3ed3dbe9	0.41378716
87	0xbf98123f	-1.1880568
88	0xbc943627	-0.018092228
89	0x3eaf11e2	0.3419333
90	0xbf5f1db4	-0.871547
91	0xbf617eff	-0.88084406
92	0x3e90ad43	0.28257188
93	0x3ed64174	0.41846812
94	0xbfb9c662	-1.4513667
95	0xbf563da1	-0.8368779
96	0x3ee14642	0.43998915
97	0x3f05a3ef	0.5220327
98	0xbf1dc4e2	-0.61628544
99	0xbe94b31f	-0.2904291
100	0xbece0159	-0.40235403
101	0x3efb6b1e	0.4910516
102	0xbfa1b989	-1.2634746
103	0x3d7dfb8e	0.06200748
104	0x3e7833f0	0.24238563
105	0xbfb3e1d0	-1.4053288
106	0xbf887d95	-1.0663325
107	0xbea6f142	-0.3260594
108	0xbcd0c92b	-0.02548655
109	0x3e9de5ec	0.3083948
110	0xbd2918d7	-0.041283455
111	0x3eda028b	0.42580065
112	0x3d08b251	0.03337318
113	0xbf59720e	-0.8493966
114	0x3d1e1310	0.0385924
115	0x3eac9dc8	0.33714128
116	0xbdc1e1b5	-0.09466878
117	0xbf463567	-0.77425236
118	0x3e8a1044	0.26965535
119	0xbf113441	-0.5672036
120	0xbf8f7cfc	-1.1210017
121	0xbf818d28	-1.0121202
122	0x3e047c90	0.12938142
123	0x3e3778cd	0.17917176
124	0xbe9fb36c	-0.31191576
125	0xbf01d877	-0.50720924
126	0x3ee1c2b5	0.44093862
127	0x3ee354e4	0.44400704
128	0xbf7e217b	-0.9926984
129	0xbf02ee93	-0.51145285
130	0x3e1676de	0.14693782
131	0x3eba7ab0	0.36421728
132	0xbf803cc5	-1.0018545
133	0x3dfa55ee	0.12223421
134	0x3de92d56	0.113856
135	0x3f055d6e	0.5209569
136	0x3e99d733	0.30046996
137	0x3e68454c	0.22682685
138	0x3dcb10c8	0.0991531
139	0xbea83a01	-0.32856753
140	0xbf8f8e6b	-1.1215338
141	0xbf567802	-0.8377687
142	0xbe12e98d	-0.14346905
143	0x3f0b72a8	0.54471827
144	0xbf93baf5	-1.154143
145	0xbfc56697	-1.5421933
146	0x3ecebf92	0.40380532
147	0x3ee47539	0.44620684
148	0xbfc4b81f	-1.5368689
149	0x3f281098	0.6565032
150	0xbe6f0922	-0.23343328
151	0xbee8e387	-0.4548609
152	0xbfd64102	-1.6738589
153	0x3e9d2c9e	0.30698103
154	0x3f03d964	0.51503587
155	0x3e8ede69	0.2790406
156	0x3e0bf2d8	0.13666856
157	0xbf8b67a1	-1.0891
158	0x3e3060e0	0.17224455
159	0x3e266562	0.16249612
160	0x3f1a8697	0.6036162
161	0xbf5400b8	-0.82813597
162	0x3e3fd1e3	0.18732409
163	0x3ee3ed5b	0.44517025
164	0xbfa2ebfa	-1.2728264
