model.tflite (tflite, 4852 bytes, 6 tensors)

dense_9/bias f4 [30]
-0.13119175 0.07943229 0.014054076 -0.059052482 -0.015836585 0.013918184 -0.102157906 0.0
0.0508075 0.056414686 0.11056115 0.14562295 0.09140564 0.010870692 -0.007547676 -0.025783177
-0.043930113 -0.04874104 0.0509979 0.0 -0.122563645 -0.09386791 0.06600428 0.007357065
-0.06361642 0.08726259 0.09869725 -0.25233516 -0.016695058 0.0029557836
00000000: 2157 06be 65ad a23d 1143 663c 04e1 71bd
00000010: babb 81bc 1809 643c 2a38 d1bd 0000 0000
00000020: 861b 503d 1613 673d e26d e23d 2f1e 153e
00000030: e132 bb3d fd1a 323c 7f52 f7bb 3e37 d3bc
00000040: 10f0 33bd afa4 47bd 2de3 503d 0000 0000
00000050: a602 fbbd d23d c0bd 402d 873d 8913 f13b
00000060: 5349 82bd bbb6 b23d c921 ca3d 1332 81be
00000070: 13c4 88bc d2b5 413b

dense_11/bias f4 [10]
-0.45168594 -0.2719677 0.65445 0.40480658 0.4324807 -0.26613042 -0.81051415 0.03741901
0.6417574 -0.69886935
00000000: 6143 e7be 5a3f 8bbe 098a 273f cf42 cf3e
00000010: 1c6e dd3e 3f42 88be db7d 4fbf ad44 193d
00000020: 374a 243f 1ae9 32bf

dense_10/bias f4 [15]
0.42070973 0.046526432 0.06058518 0.31548652 0.43703005 0.031567138 -0.2806156 0.16014946
0.28204057 0.10770273 0.12044803 0.24426952 0.074350625 0.26800606 0.109579
00000000: 4467 d73e 8092 3e3d 2a28 783d 7387 a13e
00000010: 67c2 df3e 8b4c 013d d9ac 8fbe 38fe 233e
00000020: 9f67 903e 4093 dc3d 75ad f63d ca21 7a3e
00000030: 2445 983d 1738 893e f46a e03d

sequential_3/dense_9/MatMul f4 [30, 3]
-0.4113782 -0.01238086 0.5877673 -0.5076694 0.27813214 0.19349022 -0.3637158 0.6625036
-0.2149038 0.38566262 0.32888082 -0.6506495 0.085694656 0.53418255 -0.59917146 0.5569281
-0.53032416 -0.035030536 -0.27841955 0.10002169 -0.3141857 -0.3487157 -0.1513285 -0.37505987
0.40484798 -0.329876 -0.11542734 -0.20753932 -0.51256794 0.7075723 -0.50234574 0.60589993
-0.19078441 -0.6016734 0.5676053 -0.07940972 -0.35290778 0.6614354 -0.3945597 -0.2643077
-0.23313347 0.56015676 0.46254534 -0.4481715 0.00037193805 0.57298857 -0.36694467 -0.16317174
0.5220589 -0.3017307 -0.15939052 -0.2324246 0.047945485 -0.20843592 -0.1318273 -0.52409923
0.64873695 -0.40842932 -0.41214567 -0.03744954 0.35770348 -0.33583224 0.27173185 0.44814828
-0.07553815 -0.27790055 -0.21712226 -0.5332585 0.6950004 -0.3206861 -0.29144424 0.6376737
0.5394032 -0.5818366 0.11671681 -0.07766542 -0.68352515 0.694996 -0.25694448 -0.40323785
0.59456986 -0.073995784 0.49718836 0.041762862 0.43981338 -0.4404437 0.039940804 -0.27245167
-0.33572885 0.66036445
00000000: 2aa0 d2be 17d9 4abc eb77 163f 9ff6 01bf
00000010: 5667 8e3e 4d22 463e f538 babe d699 293f
00000020: be0f 5cbe 9275 c53e 1163 a83e f790 26bf
00000030: ae80 af3d 30c0 083f 4d63 19bf d792 0e3f
00000040: 53c3 07bf 2e7c 0fbd 028d 8ebe 2cd8 cc3d
00000050: f3dc a0be dd8a b2be dcf5 1abe d907 c0be
00000060: 3c48 cf3e 82e5 a8be 2b65 ecbd 3085 54be
00000070: a737 03bf 7523 353f bb99 00bf 421c 1b3f
00000080: fd5c 43be 4507 1abf 954e 113f 90a1 a2bd
00000090: 54b0 b4be d553 293f bb03 cabe 5753 87be
000000a0: 8aba 6ebe 6f66 0f3f bed2 ec3e bc76 e5be
000000b0: ae00 c339 61af 123f 2ce0 bbbe 7e16 27be
000000c0: a7a5 053f 727c 9abe 4537 23be b700 6ebe
000000d0: 7c62 443d 3a70 55be bcfd 06be 5e2b 06bf
000000e0: a013 263f a61d d1be c204 d3be b064 19bd
000000f0: e924 b73e 34f2 abbe 7020 8b3e b173 e53e
00000100: bfb3 9abd fb48 8ebe 4c55 5ebe a183 08bf
00000110: 8ceb 313f f830 a4be 2e38 95be 953e 233f
00000120: 5416 0a3f 3ef3 14bf 3909 ef3d 0c0f 9fbd
00000130: 81fb 2ebf 42eb 313f 3a8e 83be 3175 cebe
00000140: bb35 183f 1a8b 97bd 798f fe3e 890f 2b3d
00000150: 382f e13e d681 e1be f898 233d c97e 8bbe
00000160: a7e4 abbe a50d 293f

sequential_3/dense_10/MatMul f4 [15, 30]
-0.334967 0.33883196 0.7788001 0.16957349 0.45499653 -0.30498937 -0.24225648 -0.25456092
-0.1581898 -0.3592051 0.8369056 0.59630084 1.4785208 -0.39622495 -0.43327755 -0.18994835
-0.15809071 0.26201564 -0.5228952 -0.1200774 -0.19052644 0.04684178 -0.31678838 -0.1516732
-0.5142758 -0.5269761 -0.24863508 0.42516097 -0.36086178 -0.18773338 -0.10912652 -0.3440847
-0.482323 0.12954965 0.015125676 0.8225109 -0.053100944 -0.25451845 0.7134373 0.0062499545
-0.8647957 -0.58053386 -0.3544139 0.053852566 1.0029691 0.5888456 0.68313175 0.044086426
0.09143933 -0.19024618 0.2010491 0.75750136 0.059060227 -0.04259646 0.75932133 0.16219603
0.0060036774 -0.30576175 1.1492945 -0.0025041916 0.77150345 0.009790169 -0.072184466 -0.37169138
-0.611186 -0.039840806 0.3163219 0.26853496 -0.11206371 1.202714 -0.19681774 0.27228868
-0.14229159 0.5389892 0.086183764 -0.12139927 -0.098779306 0.3352243 1.1268009 0.3048389
0.16782974 -0.33895427 1.1927022 0.7423528 0.16919774 0.6634577 1.020803 -0.11189654
-0.041633904 0.6858029 -0.11416704 0.06519261 0.8375661 0.0043887915 0.21046989 -0.2793786
-0.3156245 0.07373154 -0.2124406 -0.08284772 0.36824033 0.29461557 0.515185 0.056673296
-0.3564003 -0.22966889 -0.2381614 0.004066731 -0.31789634 -0.057802796 0.21435717 -0.2532421
-0.41987225 -0.19906527 -0.102087595 -0.45681718 -0.08370766 0.9280639 -0.29810622 0.050965514
-0.6222832 -0.28041345 -0.087380245 -0.34814665 -0.62994206 0.2315491 -0.19015023 -0.19423606
-0.050386786 -0.01324241 -0.24171261 -0.17619652 -0.37247998 -0.2602031 0.1830371 -0.14566848
0.31409445 0.26346967 0.023558557 0.18820465 0.52858317 0.098045 -0.10951349 -0.27087492
0.24388032 0.014929284 -0.030167755 0.0037263518 0.59519863 -0.22016288 -0.11738269 -0.15802535
-0.18649983 0.6483012 0.40988877 0.93649626 0.27132204 0.30408448 0.5804533 0.109227754
-0.78564554 -0.41274306 -0.22952412 -0.05335011 1.0056869 1.0018018 0.89860237 -0.2818142
0.120551094 -0.124579355 0.27443507 0.58263415 -0.06692558 -0.08055195 0.65438265 0.09048467
0.050271828 -0.20670293 0.7866768 0.033737242 0.5876967 0.033089627 -0.21087477 0.23184046
0.12147225 0.2716806 -0.1333297 0.02185908 -0.13941002 0.7100275 -0.23406029 -0.12659833
-0.22235744 0.4283701 0.54528993 0.32794377 0.24780709 -0.0044420604 0.6118024 -0.34535795
0.14451994 0.41189837 0.4775256 0.35861117 0.7018663 0.5664011 0.1284773 0.2901968
0.47920415 0.59901774 0.44491887 0.30825442 0.060673274 -0.30941692 -0.8857527 -0.109355494
0.029517233 0.12247524 -0.5063731 1.1021551 -0.10038136 0.11322599 -0.3794624 1.162244
-0.18317638 -0.6354831 -0.5897475 0.091353595 0.8555271 -0.06849745 0.05268119 -0.87207973
0.77555525 0.8693285 -0.018754829 0.84913874 1.1443942 0.17084885 -0.2983738 0.7919474
-0.3357091 -0.14162762 -0.24904382 -0.11793967 -0.10593538 1.2798793 -0.16551657 0.3264978
0.9444904 0.007218732 -0.45313632 -0.36346814 -0.48087046 -0.19724552 1.7003926 1.0629874
00000000: cb80 abbe 627b ad3e 715f 473f aca4 2d3e
00000010: 4ef5 e83e 9127 9cbe 1512 78be cf55 82be
00000020: 82fc 21be bbe9 b7be 723f 563f 2ca7 183f
00000030: 2b40 bd3f ffdd cabe 8ed6 ddbe d281 42be
00000040: 88e2 21be ea26 863e 76dc 05bf 24eb f5bd
00000050: 5d19 43be 2bdd 3f3d 1632 a2be 3850 1bbe
00000060: 94a7 03bf e8e7 06bf 329a 7ebe b3ae d93e
00000070: e0c2 b8be 2e3d 40be ba7d dfbd df2b b0be
00000080: 0af3 f6be aaa8 043e afd1 773c 1390 523f
00000090: 6080 59bd 3e50 82be d4a3 363f 6bcc cc3b
000000a0: 4063 5dbf de9d 14bf bd75 b5be 8294 5c3d
000000b0: 4b61 803f 96be 163f b9e1 2e3f f893 343d
000000c0: 8b44 bb3d e5cf 42be d1df 4d3e 9ceb 413f
000000d0: 23e9 713d a079 2ebd e262 423f b716 263e
000000e0: 7fba c43b ce8c 9cbe 151c 933f 5d1d 24bb
000000f0: 4081 453f f266 203c 73d5 93bd 554e bebe
00000100: b076 1cbf 1d30 23bd f2f4 a13e 6a7d 893e
00000110: a981 e5bd 88f2 993f 978a 49be 6c69 8b3e
00000120: e3b4 11be 32fb 093f 1d81 b03d 2ea0 f8bd
00000130: ce4c cabd 85a2 ab3e 033b 903f d813 9c3e
00000140: 8fdb 2b3e 6a8b adbe 77aa 983f d50a 3e3f
00000150: 2c42 2d3e 5dd8 293f aca9 823f 032a e5bd
00000160: 5088 2abd c790 2f3f 69d0 e9bd b483 853d
00000170: bb6a 563f dacf 8f3b 6b85 573e b60a 8fbe
00000180: 8999 a1be 9000 973d 078a 59be 11ac a9bd
00000190: ff89 bc3e dad7 963e 2ae3 033f 4222 683d
000001a0: 1a7a b6be 522e 6bbe 95e0 73be 3642 853b
000001b0: 4fc3 a2be a0c2 6cbd 7280 5b3e f3a8 81be
000001c0: 7ff9 d6be c4d7 4bbe 4d13 d1bd f1e3 e9be
000001d0: ec6e abbd 9995 6d3f 61a1 98be 37c1 503d
000001e0: f44d 1fbf 5a92 8fbe 6af4 b2bd 4740 b2be
000001f0: e243 21bf 351b 6d3e beb6 42be d1e5 46be
00000200: 6062 4ebd b1f6 58bc 8383 77be dc6c 34be
00000210: b2b5 bebe 5739 85be 146e 3b3e 1e2a 15be
00000220: fdd0 a03e 7fe5 863e e0fd c03c b8b8 403e
00000230: 3a51 073f d1cb c83d 9c48 e0bd 1eb0 8abe
00000240: c3bb 793e f599 743c 5e22 f7bc cf35 743b
00000250: f05e 183f 6172 61be 5666 f0bd 66d1 21be
00000260: d0f9 3ebe 11f7 253f f1dc d13e 38be 6f3f
00000270: b9ea 8a3e f6b0 9b3e 9698 143f cdb2 df3d
00000280: 1120 49bf 0f53 d3be 5f08 6bbe a585 5abd
00000290: 59ba 803f 0b3b 803f ce0a 663f f349 90be
000002a0: 7ee3 f63d 7623 ffbd c182 8c3e 8327 153f
000002b0: 4710 89bd 6cf8 a4bd 9f85 273f 0750 b93d
000002c0: d5e9 4d3d efa9 53be a763 493f 1030 0a3d
000002d0: 4a73 163f fd88 073d 8eef 57be 9667 6d3e
000002e0: 71c6 f83d b819 8b3e 9587 08be d011 b33c
000002f0: 80c1 0ebe 5dc4 353f 80ad 6fbe fea2 01be
00000300: abb1 63be 5353 db3e 1f98 0b3f 3fe8 a73e
00000310: 24c1 7d3e b48e 91bb 159f 1c3f c2d2 b0be
00000320: 09fd 133e 58e4 d23e 3c7e f43e e29b b73e
00000330: 83ad 333f aaff 103f 8e8f 033e ad94 943e
00000340: 3f5a f53e 3a59 193f 68cc e33e 86d3 9d3e
00000350: 8a84 783d e56b 9ebe b0c0 62bf c6f5 dfbd
00000360: 20ce f13c 4cd4 fa3d aba1 01bf 6b13 8d3f
00000370: be94 cdbd 07e3 e73d e548 c2be 69c4 943f
00000380: 9792 3bbe 05af 22bf b1f9 16bf 9817 bb3d
00000390: d303 5b3f 6448 8cbd 3bc8 573d 9e40 5fbf
000003a0: ca8a 463f 508c 5e3f baa3 99bc 2861 593f
000003b0: 827b 923f 00f3 2e3e 73c4 98be 11bd 4a3f
000003c0: 10e2 abbe d506 11be 5805 7fbe 5b8a f1bd
000003d0: a6f4 d8bd 16d3 a33f 2d7d 29be b82a a73e
000003e0: 1fca 713f 1d8b ec3b 7c01 e8be 7f18 babe
000003f0: a734 f6be bbfa 49be 77a6 d93f f90f 883f

sequential_3/dense_11/MatMul f4 [10, 15]
-0.10277028 -0.91430634 0.50126964 -0.025539229 -1.0678502 -0.9416061 0.62064683 0.47063407
-1.6271039 0.47098905 0.42105484 0.065924086 -0.75567544 0.40565047 -0.93140674 0.663105
-1.5617284 0.42178807 0.6613699 -0.876421 -1.4849026 0.11267406 0.40276957 -1.3288358
0.3879038 0.31742683 0.22997779 -0.7827824 -0.34005675 -0.7777507 0.3473892 -1.4929235
0.27718163 0.30331612 0.2822125 -1.0502757 -0.7153833 0.2647928 -0.30603838 0.23453893
0.21496989 -0.103818454 -1.4069489 0.36876827 -1.0125294 0.57167375 -0.24555366 -0.88764405
0.7531733 0.3816701 0.11200771 -0.5621345 -0.634081 0.18432441 -0.33600703 -0.7208816
-0.47966406 0.33710283 -0.9052298 -0.07043853 0.37551466 0.2557259 -1.3333138 0.20867856
0.15827213 0.25692967 -0.43340304 -0.9948164 0.29053143 -1.0735592 -0.9363032 -1.1034548
0.2869813 -0.32891148 0.40230882 0.055293232 0.33302328 -1.5162463 -0.41648263 -0.053006623
0.40319994 0.23653536 -1.0765797 0.37804607 -1.7585558 -1.6276174 -1.2592399 0.51573026
-0.88471437 0.6966885 -0.73296773 0.27612025 0.1853027 -0.19775431 0.31328714 0.22557229
0.40368167 -0.15801844 0.28943565 0.031535193 0.18654446 -1.1189927 -0.10244688 0.25733286
0.19340338 -0.9165548 0.337926 -1.291962 -0.6464683 0.3947329 0.3408208 0.18377286
-1.2029585 0.38068947 -1.5943357 -1.4202198 -1.7815088 0.31546715 -0.038518663 0.62758183
0.8269306 -1.4351206 -0.35045862 0.77483565 -0.6168088 -0.5120615 -1.4600943 -0.24850538
-0.7932815 -0.31763828 -0.5753522 0.23693885 0.45345855 -1.2595036 -0.93466336 -1.4596704
0.14751168 0.4773638 -0.4104785 -0.024295252 0.2075191 0.6203201 0.42206478 0.20054184
0.40273163 0.35821807 -0.7774328 -0.95488524 0.39373273 -0.8611671
00000000: 3979 d2bd fb0f 6abf 3553 003f a537 d1bc
00000010: 51af 88bf 190d 71bf b6e2 1e3f f3f6 f03e
00000020: f144 d0bf 7a25 f13e 8094 d73e 3503 873d
00000030: f273 41bf 6bb1 cf3e ac70 6ebf 40c1 293f
00000040: b7e6 c7bf 9bf4 d73e 8a4f 293f 205d 60bf
00000050: 4a11 bebf a8c1 e63d d037 ce3e 4b17 aabf
00000060: 549b c63e c585 a23e 4c7f 6b3e 6d64 48bf
00000070: eb1b aebe ab1a 47bf ffdc b13e 1e18 bfbf
00000080: c0ea 8d3e 404c 9b3e 287e 903e 6f6f 86bf
00000090: 5c23 37bf ec92 873e 10b1 9cbe f92a 703e
000000a0: 1121 5c3e c59e d4bd e716 b4bf 32cf bc3e
000000b0: 909a 81bf 3659 123f 6b72 7bbe a43c 63bf
000000c0: f7cf 403f 436a c33e 4c64 e53d 0ce8 0fbf
000000d0: 2253 22bf 8abf 3c3e 1d09 acbe b28b 38bf
000000e0: 8796 f5be be98 ac3e 24bd 67bf 1342 90bd
000000f0: 7543 c03e 81ee 823e 07aa aabf d5af 553e
00000100: 1712 223e 498c 833e 01e7 ddbe 4aac 7ebf
00000110: 89c0 943e 636a 89bf 91b1 6fbf 023e 8dbf
00000120: 37ef 923e 1667 a8be 6cfb cd3e 287b 623d
00000130: 0782 aa3e 5c14 c2bf 363d d5be 791d 59bd
00000140: 3970 ce3e 5336 723e 5dcd 89bf 418f c13e
00000150: 5b18 e1bf c455 d0bf c62e a1bf e606 043f
00000160: a47c 62bf 2d5a 323f c6a3 3bbf a25f 8d3e
00000170: febf 3d3e 1b80 4abe 2c67 a03e 6cfc 663e
00000180: 5daf ce3e 96cf 21be e930 943e 0c2b 013d
00000190: 8305 3f3e 273b 8fbf abcf d1bd 22c1 833e
000001a0: 890b 463e 56a3 6abf a304 ad3e 035f a5bf
000001b0: f27e 25bf 6e1a ca3e 1080 ae3e f42e 3c3e
000001c0: 8bfa 99bf bbe9 c23e 3113 ccbf c3c9 b5bf
000001d0: 7b08 e4bf e984 a13e bfc5 1dbd 34a9 203f
000001e0: b9b1 533f 08b2 b7bf 506f b3be a15b 463f
000001f0: 2ee7 1dbf 7616 03bf 5fe4 babf 3278 7ebe
00000200: 7f14 4bbf 7ca1 a2be 484a 13bf 19a0 723e
00000210: b82b e83e 6a37 a1bf 1946 6fbf 7bd6 babf
00000220: 4d0d 173e 0769 f43e 3d2a d2be d606 c7bc
00000230: e37f 543e 4ccd 1e3f e018 d83e d75a 4d3e
00000240: d732 ce3e 5c68 b73e d605 47bf 5c73 74bf
00000250: 5697 c93e 7275 5cbf
