model.tflite (tflite, 4804 bytes, 6 tensors)

dense_2/bias f4 [10]
0	0xbf158d62	-0.5841886
1	0xbe1e9182	-0.15485194
2	0x3fe8b207	1.817933
3	0x3f51bab9	0.8192554
4	0xbea41241	-0.32045177
5	0xbe8f73e1	-0.28018096
6	0xbf3092db	-0.68974084
7	0xbe9567b9	-0.29180697
8	0x3f5acefa	0.8547207
9	0xbfc1073e	-1.5080335

dense_1/bias f4 [15]
0	0x3dcdeb6f	0.10054671
1	0x3dd4b50f	0.10386097
2	0x3c7a7a5b	0.015287961
3	0x3e412428	0.18861449
4	0x3e7b72f8	0.24555576
5	0x3ca3ce8c	0.01999595
6	0x3e19e640	0.1502924
7	0x3c3bbf9a	0.011459256
8	0xbd8a5fd6	-0.067565605
9	0x3e0d11c5	0.1377631
10	0x3de225bc	0.110423535
11	0x3d62cdb8	0.05537197
12	0x3cd97fa8	0.026550129
13	0x3ce37c5a	0.027769256
14	0x3cefe932	0.029286

dense/bias f4 [30]
0	0x00000000	0.0
1	0xbd03c657	-0.032171573
2	0xbc5db88e	-0.013532771
3	0xbc813ebb	-0.015776983
4	0x3d1bdee0	0.038054347
5	0xbd8e9a16	-0.06962983
6	0x3ca5347c	0.020166628
7	0x3d2576a7	0.04039636
8	0xbdeab0a5	-0.114594735
9	0xbc06368f	-0.008191719
10	0xbc3a4551	-0.011369065
11	0xbd73e3fa	-0.059543587
12	0xba37ab64	-0.0007006435
13	0x00000000	0.0
14	0x00000000	0.0
15	0xbc0a6fff	-0.0084495535
16	0xbe0e6f09	-0.13909544
17	0x3c171ba9	0.009222903
18	0x3c87ca3d	0.016575927
19	0x3bc9b115	0.006155143
20	0xbba99f73	-0.0051764785
21	0xbbeb7857	-0.0071859765
22	0xbc1bc3d8	-0.009507142
23	0xbc8e2c7c	-0.017355196
24	0x00000000	0.0
25	0xbd2e7244	-0.04258944
26	0xbd7df771	-0.062003557
27	0x3c5bebcd	0.0134229185
28	0x3d340700	0.04395199
29	0xbbda786b	-0.006667187

sequential/dense/MatMul f4 [30, 3]
0	0xbed1df3f	-0.40990636
1	0xbe9e13e2	-0.30874544
2	0xbec13bc3	-0.37740907
3	0xbe0fd95d	-0.14047761
4	0x3f4f78fd	0.8104399
5	0xbf1ed83e	-0.6204871
6	0xbef193dd	-0.47183123
7	0xbe892d1e	-0.26792234
8	0x3f49208e	0.785653
9	0xbe93d221	-0.28871253
10	0x3c797611	0.015225903
11	0xbe49158e	-0.19637129
12	0x3ec9e501	0.3943253
13	0xbf145d27	-0.5795464
14	0x3e25afe1	0.16180374
15	0xbed70fb4	-0.42004168
16	0xbeae729f	-0.34071824
17	0x3f5e6e16	0.8688673
18	0xbf0f28a1	-0.5592137
19	0xbc34c9c1	-0.01103443
20	0x3f176c01	0.59149176
21	0x3e0a7956	0.13522848
22	0xbf2efb81	-0.68352515
23	0x3f039033	0.51391906
24	0xbecb0c67	-0.396579
25	0xbe8c85ce	-0.27445835
26	0x3f4fed3c	0.81221366
27	0xbf4c60c6	-0.79835165
28	0x3f2d1459	0.67609173
29	0x3e181512	0.14851788
30	0x3f286b9d	0.65789205
31	0xbf137d28	-0.5761285
32	0xbd67379c	-0.056449518
33	0xbe95ea35	-0.29280248
34	0x3f60bc78	0.8778758
35	0xbefd977c	-0.49529636
36	0xbee6adc1	-0.4505444
37	0xbea2f9de	-0.3183126
38	0x3f4e32a7	0.8054604
39	0xbe9512ad	-0.2911581
40	0xbea2a7e3	-0.31768712
41	0xbed88e7a	-0.422962
42	0xbe8fe4c4	-0.28104222
43	0xbe191738	-0.14950264
44	0xbd36f7e0	-0.044669986
45	0x3f2e1729	0.6800409
46	0xbf28472b	-0.65733594
47	0xbc1b74a0	-0.009488255
48	0x3f305fb3	0.68896025
49	0xbe8b902c	-0.27258432
50	0xbe7875d8	-0.24263704
51	0xbd26009e	-0.040527932
52	0xbf0a3804	-0.53991723
53	0x3f1d64a1	0.6148167
54	0xbe2bbc39	-0.1677102
55	0xbeef79fc	-0.46772754
56	0x3f23b59e	0.63949
57	0xbe5b1fe5	-0.21398886
58	0xbedc3214	-0.43006957
59	0x3f252ebc	0.64524436
60	0x3f3d8fef	0.7404775
61	0xbf34d52c	-0.70637774
62	0xba059526	-0.0005095772
63	0x3f356d0b	0.7086951
64	0xbf22792e	-0.63466156
65	0xbd4b2a10	-0.04960066
66	0x3f208224	0.6269858
67	0xbf050c19	-0.51971585
68	0xbdb11061	-0.08645702
69	0xbcf60d39	-0.030035602
70	0x3f2299c7	0.63515896
71	0xbf10d13a	-0.56569254
72	0xbcc53920	-0.02407509
73	0xbd035c28	-0.03207031
74	0xbebf7c26	-0.37399405
75	0xbe4a5c17	-0.19761692
76	0x3f5d558f	0.8645868
77	0xbf1c5e3e	-0.610813
78	0xbf07e645	-0.5308574
79	0x3f5d3872	0.86414254
80	0xbe866ccd	-0.26254883
81	0xbe79cf4d	-0.24395485
82	0xbee99fc4	-0.45629704
83	0x3f33afe6	0.70190275
84	0x3e31c3be	0.17359826
85	0xbf2e1845	-0.6800578
86	0x3ef4bb43	0.4779912
87	0x3f252191	0.64504343
88	0xbf2c64af	-0.6734113
89	0x3d4cd867	0.050011065

sequential/dense_1/MatMul f4 [15, 30]
0	0x3ce584f0	0.028017491
1	0xbd9c60c0	-0.07635641
2	0xbe757e21	-0.23973896
3	0xb9b33c8e	-0.00034186657
4	0x3ef9fd2a	0.4882596
5	0xbe85e988	-0.26154733
6	0xbee30ac9	-0.44344166
7	0xbd2637a5	-0.04058041
8	0xbea9a5ef	-0.3313441
9	0xbf71d53c	-0.94465995
10	0x4008f928	2.1402073
11	0xbdb1ccdc	-0.08681652
12	0xbe89ff40	-0.26952553
13	0x3e80c9c8	0.25153947
14	0xbe3f055b	-0.18654387
15	0x40095b36	2.146192
16	0x3f47f422	0.7810689
17	0xbe54f794	-0.20797569
18	0xbe7d1c1e	-0.24717757
19	0xbe555242	-0.2083216
20	0x4010e421	2.263924
21	0x400d7f16	2.2108817
22	0x4003d2b1	2.0597346
23	0xbddd3eb5	-0.10802976
24	0x3d4e1e08	0.05032161
25	0xbda750b6	-0.08169691
26	0xbe3bf626	-0.18355617
27	0xbdea0bcd	-0.11428032
28	0x3d96a1c0	0.0735507
29	0x3fea5955	1.8308512
30	0xbe93cc18	-0.2886665
31	0xbdb80a0d	-0.08986292
32	0xbe666266	-0.22498474
33	0xbd2cecc0	-0.04221797
34	0x3f0ef8cd	0.5584839
35	0xbe4fe755	-0.2030309
36	0xbec8c547	-0.3921301
37	0xbd9cd2a5	-0.07657365
38	0xbea484f6	-0.3213269
39	0xbf57b629	-0.8426233
40	0x3ffa7d8d	1.9569565
41	0xbd8354e2	-0.064126745
42	0xbe3855cb	-0.18001477
43	0x3def7430	0.11692083
44	0x3de32244	0.1109052
45	0x400073ae	2.0070605
46	0x3f2cdc17	0.6752333
47	0xbe28e163	-0.16492228
48	0xbe38823d	-0.18018432
49	0xbe8ca697	-0.27470848
50	0x3fe77c40	1.8084793
51	0x40122c39	2.2839491
52	0x3fe623fc	1.7979732
53	0xbdf3af09	-0.1189862
54	0x3de5da1c	0.11223242
55	0xbdcb7fba	-0.09936471
56	0xbe5d9031	-0.21637036
57	0xbe219775	-0.15780433
58	0x3dc2954d	0.09501133
59	0x3fd916bd	1.6960064
60	0xbe242165	-0.16028364
61	0xbc7b43c6	-0.015335983
62	0xbe6c9854	-0.23104984
63	0xbe44b346	-0.19209012
64	0x3ec647e8	0.38726735
65	0xbe65c3f9	-0.22438039
66	0xbecdf55d	-0.4022626
67	0x3e248122	0.16064885
68	0xbe3bdb87	-0.18345462
69	0xbfce0495	-1.6095148
70	0x3fc916da	1.5710099
71	0x3ba5f2a9	0.0050643277
72	0xbe73f73c	-0.23824781
73	0xbcb44de0	-0.02200979
74	0xbdb32904	-0.087480575
75	0x3fbba674	1.4660172
76	0x3f3581bd	0.7090109
77	0xbdebf80e	-0.11521922
78	0xbe0945e0	-0.13405561
79	0xbd8da9f9	-0.06917185
80	0x3fb672ef	1.4253825
81	0x3fb3656d	1.4015328
82	0x3fc78003	1.5585941
83	0xbbe4e9a9	-0.0069858623
84	0xbcf02110	-0.02931264
85	0xbbfee972	-0.0077792937
86	0xbc6362e8	-0.013878562
87	0xbe4d0a67	-0.200235
88	0x3ddd311f	0.10800385
89	0x3fcf16b5	1.6178805
90	0x3e8c9344	0.27456105
91	0x3f02e777	0.5113444
92	0x3e43d81b	0.19125406
93	0xbeaf2b5f	-0.34212777
94	0xbf500922	-0.81263936
95	0x3db2a8ff	0.0872364
96	0x3ea0786d	0.31341878
97	0xbe89e40e	-0.26931804
98	0x3eaf098a	0.34186965
99	0x3fc4b58b	1.5367903
100	0xbf497e4c	-0.7870834
101	0x3f6cb179	0.924583
102	0x3e0adef2	0.1356161
103	0xbd2d7ad0	-0.04235345
104	0x3e9dd34e	0.30825275
105	0xbf737cbe	-0.95112216
106	0xbe252874	-0.16128713
107	0xbdd5b990	-0.10435784
108	0xbd975708	-0.07389647
109	0xbd70a413	-0.058750223
110	0xbf8ffe75	-1.1249529
111	0xbf430ea4	-0.76194215
112	0xbf286814	-0.6578381
113	0x3e8ddec3	0.27709016
114	0x3e3e69d4	0.18595058
115	0x3f2dacb5	0.67841655
116	0x403ed187	2.9815385
117	0xbd9cbfb8	-0.07653755
118	0xbe840084	-0.25781643
119	0xbfc945d0	-1.572443
120	0x3e3bbaf0	0.1833303
121	0x40013ffa	2.0195298
122	0xbde7622e	-0.11298023
123	0x3e8e1597	0.27750847
124	0xbe8631e2	-0.26209933
125	0xbed44297	-0.41457054
126	0xbc192f63	-0.009349677
127	0xbfbd7ad8	-1.4803114
128	0xbea7b8bc	-0.3275813
129	0x3e9dd3d2	0.3082567
130	0xbda25375	-0.079260744
131	0x4012fab7	2.2965524
132	0xbe906bbf	-0.28207204
133	0xbe6ef32f	-0.23334955
134	0xbd4971b8	-0.049180716
135	0xbe0bca06	-0.13651285
136	0x3c2746a6	0.010209715
137	0xbf6d2e52	-0.92648804
138	0xbf1b4631	-0.6065398
139	0xbefbc79e	-0.49175733
140	0xbdf6fd5f	-0.120600455
141	0xbdea5925	-0.11442784
142	0xbe12cbe2	-0.14335588
143	0x3fb6f643	1.4293903
144	0x3e3f3e34	0.18676072
145	0x40258502	2.5862432
146	0x3f85ad0d	1.0443436
147	0xbef6a684	-0.48173916
148	0xbf86d0be	-1.0532453
149	0xbddaa287	-0.10675531
150	0x3c6a6360	0.014305919
151	0xbf346740	-0.70470047
152	0x3fb751a2	1.4321787
153	0xbdf00b1d	-0.1172087
154	0xbc044edf	-0.008075445
155	0x3fee235a	1.8604538
156	0x3f54a526	0.83064497
157	0x3bd283cd	0.0064244033
158	0x3ffbe5ca	1.9679501
159	0xbce03c7b	-0.02737259
160	0xbc502024	-0.012702975
161	0xbe88b590	-0.2670102
162	0x3fc9ddbf	1.5770797
163	0xbeace053	-0.33764896
164	0x3eb78838	0.35846114
165	0xbb6cf2d8	-0.0036155488
166	0xbc4cd93f	-0.012502967
167	0x3f71b157	0.94411224
168	0x3f96ec52	1.1790869
169	0x3f92b88b	1.1462568
170	0xbc568ccc	-0.013095092
171	0xbbcc053c	-0.00622621
172	0xbcb990fe	-0.022652145
173	0xbf7a371f	-0.9774036
174	0xbe9e2053	-0.30884036
175	0xbf1d13c5	-0.6135829
176	0xbd701808	-0.058616668
177	0x3fa2f920	1.2732277
178	0x3b88b2a9	0.0041716886
179	0x3ba118e3	0.004916297
180	0xbe957095	-0.29187456
181	0x3dd8352d	0.105570175
182	0xbfcf727f	-1.6206816
183	0xbdbb4ef8	-0.091459215
184	0xbb86688f	-0.00410182
185	0xbfb4b125	-1.411656
186	0xbfe135de	-1.7594564
187	0xbe7502cc	-0.23926848
188	0xbf848d5a	-1.0355637
189	0xbfd4bceb	-1.6620153
190	0x3f2cd60b	0.67514104
191	0x3d113b52	0.035456963
192	0xbfd8f726	-1.6950424
193	0x3e2530b4	0.1613186
194	0x3da53314	0.08066383
195	0x3f095f4f	0.53661054
196	0x3fa1bfa2	1.2636607
197	0xbf7168c2	-0.9430047
198	0xbf696497	-0.9116911
199	0xbf80f02d	-1.0073296
200	0x3ecda67d	0.40166083
201	0x3f2798d1	0.65467554
202	0x3f6133e3	0.879698
203	0x3dd19873	0.102341555
204	0x3e21ab04	0.15787894
205	0x3d1ba47d	0.037998665
206	0xbe127fc9	-0.14306559
207	0xbf7e361a	-0.993013
208	0xbe916b01	-0.2840195
209	0x3f0c4845	0.54797775
210	0xbeb05e4a	-0.34446937
211	0xbd901bc2	-0.070365444
212	0xbca61d8f	-0.020277767
213	0x3e896c30	0.26840353
214	0x3ffe26dc	1.9855609
215	0xbd4cb962	-0.049981482
216	0xbe01cdba	-0.12676135
217	0x40048fdd	2.0712807
218	0xbe1455ce	-0.14485857
219	0xbe00e644	-0.1258784
220	0x3eb7740f	0.35830733
221	0xbe92bfcb	-0.2866195
222	0xbd7275ce	-0.05919438
223	0xbe02ec4e	-0.12785456
224	0xbe93a2ac	-0.28835046
225	0x3eff5615	0.49870363
226	0xbd06a7df	-0.032874938
227	0x3f261fd0	0.6489229
228	0x3e3ab935	0.18234713
229	0x3e930da6	0.2872135
230	0x3edef3fa	0.43545514
231	0x3eb015f8	0.3439176
232	0x3dd0d28f	0.10196411
233	0xbdd38e57	-0.103298835
234	0xbeb66b9a	-0.35628968
235	0xbe1034bc	-0.14082617
236	0xbf3ae664	-0.730078
237	0x3e106cea	0.14104047
238	0x400e5a7c	2.2242727
239	0x3f2f5bc4	0.684994
240	0xbe8db3be	-0.27676195
241	0xbdc96250	-0.09833205
242	0x3d7f3d06	0.062314056
243	0x3c295cab	0.010337035
244	0x3f49a526	0.7876762
245	0x3d43d97c	0.04781483
246	0xbcb5f26c	-0.022210322
247	0x3ea29ab7	0.31758663
248	0x3dd87cc6	0.10570674
249	0xbe805fce	-0.25073093
250	0x3f5d1d0e	0.8637246
251	0xbe9fe5d7	-0.3123004
252	0x3cdb0238	0.026734456
253	0xbe9192bf	-0.2843227
254	0x3eab77f4	0.33489954
255	0x3fb1e732	1.389868

sequential/dense_2/MatMul f4 [10, 15]
0	0xc006a191	-2.1036112
1	0xbff232b1	-1.892172
2	0xc00edda0	-2.232277
3	0x3edd4b0b	0.43221316
4	0xbfe88cf9	-1.8168021
5	0x3f2a4945	0.6651805
6	0xc06314f5	-3.548154
7	0x3ea44c71	0.3208957
8	0xbdb51d82	-0.08843519
9	0xc02ed1c1	-2.7315524
10	0xbf30f66a	-0.69126
11	0x3f0fae35	0.56125194
12	0x3ee895e1	0.4542685
13	0x3ec0f69c	0.37688148
14	0x3f475b8e	0.77874076
15	0xc0855aac	-4.1673183
16	0xc07679f7	-3.8511941
17	0xc091f8f4	-4.56164
18	0x3f210f06	0.6291355
19	0x3ef8426a	0.4848817
20	0x3f1adce5	0.6049331
21	0xc074748c	-3.8196135
22	0xbf9d1cae	-1.2274377
23	0xc0597d97	-3.3982904
24	0xbf014931	-0.50502306
25	0x3ee0a098	0.43872523
26	0x3eee64f1	0.46561387
27	0x3ea454cd	0.32095948
28	0x3eb617b9	0.35564974
29	0x3f42e8de	0.7613658
30	0xbf505f3a	-0.81395304
31	0xbf0f2ba5	-0.5592597
32	0xbff6000a	-1.9218762
33	0x3cc47b27	0.023984505
34	0xbef34781	-0.4751549
35	0x3e885281	0.26625445
36	0xc036ad12	-2.8543134
37	0xbda8cb52	-0.08241905
38	0xc00afb74	-2.1715975
39	0xc03bf233	-2.9366577
40	0xbf941bdd	-1.1571003
41	0x3e5220cf	0.20520328
42	0x3d8cd1ba	0.0687594
43	0x3de8a440	0.11359453
44	0x3ef49641	0.47770885
45	0xbd859ce1	-0.06524063
46	0x3e3fd063	0.18731837
47	0xbdf6674a	-0.120314196
48	0x3f094d83	0.536339
49	0x3f1823c2	0.5942956
50	0xc051a7c2	-3.2758641
51	0x3e21c61a	0.15798226
52	0xc01768e5	-2.3657773
53	0xbf30d511	-0.69075114
54	0x3f08909e	0.5334567
55	0x3f0123dd	0.5044535
56	0xc02df048	-2.7177906
57	0xc038c647	-2.887102
58	0xbfe262ce	-1.7686403
59	0xbff43ba5	-1.9080702
60	0x3e2bba04	0.16770178
61	0x3edadd28	0.42746854
62	0x3e565deb	0.20934264
63	0xbfe5270c	-1.7902541
64	0x3ed2f4af	0.41202304
65	0xbed29946	-0.41132563
66	0x3ea67092	0.3250776
67	0x3e8b7d48	0.2724402
68	0x3f007357	0.50175995
69	0x3ee0d290	0.43910646
70	0x3e601226	0.21881923
71	0xbdf19164	-0.11795309
72	0x3da50082	0.080567375
73	0xbffe3d8b	-1.9862531
74	0xbf7f3a9f	-0.99698824
75	0x3e272e76	0.16326317
76	0x3edd136c	0.4317888
77	0x3e6e7368	0.23286211
78	0xbeac912f	-0.33704516
79	0x3f0c751d	0.548662
80	0xc071a761	-3.775841
81	0x3eb3f8bb	0.35150704
82	0xbd05c8d2	-0.03266222
83	0x3eea3086	0.45740145
84	0x3f02006c	0.50781894
85	0x3eee7382	0.465725
86	0xc05a3b4e	-3.4098697
87	0xbf8ee7c1	-1.1164476
88	0xc0685fed	-3.6308548
89	0xc031e25a	-2.7794404
90	0x3e3b2b68	0.18278277
91	0x3eea4393	0.4575468
92	0x3e77bca2	0.24193051
93	0xc07bdf12	-3.9354901
94	0xc01e22e1	-2.4708788
95	0x3dd24646	0.1026731
96	0x3e81e335	0.25368658
97	0x3ebddadc	0.3708104
98	0x3f0883c1	0.5332604
99	0xbf4fdf92	-0.81200516
100	0xc059216a	-3.3926644
101	0x3e86f061	0.2635527
102	0x3e8f0ffd	0.27941886
103	0xbf9cace2	-1.224026
104	0xbf183b3d	-0.5946539
105	0x3e4e3d03	0.20140462
106	0x3ef3021a	0.4746254
107	0x3e81c58c	0.2534603
108	0xbffa3227	-1.9546555
109	0xbf87f1ab	-1.0620626
110	0xc017ab98	-2.3698483
111	0x3ec7bdd9	0.3901203
112	0x3eb6d074	0.35705912
113	0x3f0cfc3c	0.5507238
114	0x3d5a8a4c	0.053354546
115	0xc013b4a1	-2.3078997
116	0xbf06d33e	-0.5266608
117	0x3d8be6d4	0.06831136
118	0xbf9c24c4	-1.219872
119	0xbf61351e	-0.87971675
120	0xc0203dd1	-2.503773
121	0xc01e160f	-2.4700963
122	0xc05100a4	-3.265664
123	0x3f3a1b4b	0.72697896
124	0x3f2ae5ad	0.6675671
125	0xbf4365cc	-0.76327205
126	0xbf834924	-1.0256696
127	0xc084fd41	-4.155915
128	0xc081d5ae	-4.057334
129	0x3f11350c	0.5672157
130	0x3f1189f6	0.56851137
131	0xbffc8a0f	-1.9729632
132	0xc026c9c8	-2.6060658
133	0x3e1d250e	0.15346166
134	0x3ee9b45d	0.4564542
135	0x3e1f06c6	0.15529928
136	0x3ecead26	0.40366477
137	0x3e3578ef	0.17721914
138	0xc00a4833	-2.1606567
139	0xc095897e	-4.6730337
140	0x3f1c59da	0.610746
141	0xbebac349	-0.36477116
142	0x3ecfd218	0.40589976
143	0x3f00e368	0.50346994
144	0xc0051da3	-2.079934
145	0xc04661fe	-3.099731
146	0x3f06d58c	0.52669597
147	0x3ed79e35	0.4211289
148	0x3ea5778e	0.32317775
149	0x3f3727d1	0.7154513
